…
-05-14T16:22:10.688546Z"}},"outputs":[],"execution_count":52},{"cell_type":"code","source":"baseline_model = DrSam_Eddy_Stora()\n\nbaseline_model","metadata":{"trusted":true,"execution":{"iopub.status.busy":"2025-05-14T16:22:11.231382Z","iopub.execute_input":"2025-05-14T16:22:11.231715Z","iopub.status.idle":"2025-05-14T16:22:11.284134Z","shell.execute_reply.started":"2025-05-14T16:22:11.231692Z","shell.execute_reply":"2025-05-14T16:22:11.283283Z"}},"outputs":[{"execution_count":53,"output_type":"execute_result","data":{"text/plain":"DrSam_Eddy_Stora(\n  (feature_extractor): Sequential(\n    (0): Conv2d(3, 24, kernel_size=(5, 5), stride=(2, 2))\n    (1): ReLU()\n    (2): Conv2d(24, 36, kernel_size=(5, 5), stride=(2, 2))\n    (3): ReLU()\n    (4): Conv2d(36, 48, kernel_size=(5, 5), stride=(2, 2))\n    (5): ReLU()\n    (6): Conv2d(48, 64, kernel_size=(3, 3), stride=(1, 1))\n    (7): ReLU()\n    (8): Conv2d(64, 64, kernel_size=(3, 3), stride=(1, 1))\n    (9): ReLU()\n  )\n  (flatten): Flatten(start_dim=1, end_dim=-1)\n  (dense_layers): Sequential(\n    (0): Linear(in_features=3456, out_features=1164, bias=True)\n    (1): ReLU()\n    (2): Linear(in_features=1164, out_features=100, bias=True)\n    (3): ReLU()\n    (4): Linear(in_features=100, out_features=50, bias=True)\n    (5): ReLU()\n    (6): Linear(in_features=50, out_features=10, bias=True)\n    (7): ReLU()\n    (8): Linear(in_features=10, out_features=1, bias=True)\n  )\n)"},"metadata":{}}],"execution_count":53},{"cell_type":"code","source":"class RMSE(nn.Module):\n    def __init__(self):\n        super(RMSE, self).__init__()\n        self.mse = nn.MSELoss()\n\n    def forward(self, y, ypred):\n        return torch.sqrt(self.mse(y, ypred) + torch.finfo(torch.float32).eps)","metadata":{"trusted":true,"execution":{"io
…
