…
5-04T00:51:30.211177Z"}},"outputs":[],"execution_count":143},{"cell_type":"code","source":"baseline_model = DrSam_Eddy_Stora()\n\nbaseline_model","metadata":{"trusted":true,"execution":{"iopub.status.busy":"2025-05-04T00:51:30.634392Z","iopub.execute_input":"2025-05-04T00:51:30.634686Z","iopub.status.idle":"2025-05-04T00:51:30.676787Z","shell.execute_reply.started":"2025-05-04T00:51:30.634664Z","shell.execute_reply":"2025-05-04T00:51:30.675806Z"}},"outputs":[{"execution_count":144,"output_type":"execute_result","data":{"text/plain":"DrSam_Eddy_Stora(\n  (feature_extractor): Sequential(\n    (0): Conv2d(3, 24, kernel_size=(5, 5), stride=(2, 2))\n    (1): ReLU()\n    (2): Conv2d(24, 36, kernel_size=(5, 5), stride=(2, 2))\n    (3): ReLU()\n    (4): Conv2d(36, 48, kernel_size=(5, 5), stride=(2, 2))\n    (5): ReLU()\n    (6): Conv2d(48, 64, kernel_size=(3, 3), stride=(1, 1))\n    (7): ReLU()\n    (8): Conv2d(64, 64, kernel_size=(3, 3), stride=(1, 1))\n    (9): ReLU()\n  )\n  (flatten): Flatten(start_dim=1, end_dim=-1)\n  (dense_layers): Sequential(\n    (0): Linear(in_features=1152, out_features=1164, bias=True)\n    (1): ReLU()\n    (2): Linear(in_features=1164, out_features=100, bias=True)\n    (3): ReLU()\n    (4): Linear(in_features=100, out_features=50, bias=True)\n    (5): ReLU()\n    (6): Linear(in_features=50, out_features=10, bias=True)\n    (7): ReLU()\n    (8): Linear(in_features=10, out_features=1, bias=True)\n  )\n)"},"metadata":{}}],"execution_count":144},{"cell_type":"code","source":"iter()","metadata":{"trusted":true,"execution":{"iopub.status.busy":"2025-05-04T00:52:52.206245Z","iopub.execute_input":"2025-05-04T00:52:52.206560Z","iopub.status.idle":"2025-05-04T00:52:52.213511Z","shell.execute_reply.started":"2025-05-04T00:52:52.206537Z","shell.execute_rep
…
