…
     "iopub.execute_input": "2025-05-22T14:43:00.507240Z",
     "iopub.status.busy": "2025-05-22T14:43:00.507022Z",
     "iopub.status.idle": "2025-05-22T14:43:00.943006Z",
     "shell.execute_reply": "2025-05-22T14:43:00.942266Z"
    },
    "papermill": {
     "duration": 0.464526,
     "end_time": "2025-05-22T14:43:00.944321",
     "exception": false,
     "start_time": "2025-05-22T14:43:00.479795",
     "status": "completed"
    },
    "tags": []
   },
   "outputs": [
    {
     "data": {
      "text/plain": [
       "DrSam_Eddy_Stora(\n",
       "  (feature_extractor): Sequential(\n",
       "    (0): Conv2d(3, 24, kernel_size=(5, 5), stride=(2, 2))\n",
       "    (1): ELU(alpha=1.0)\n",
       "    (2): Conv2d(24, 36, kernel_size=(5, 5), stride=(2, 2))\n",
       "    (3): ELU(alpha=1.0)\n",
       "    (4): Conv2d(36, 48, kernel_size=(5, 5), stride=(2, 2))\n",
       "    (5): ELU(alpha=1.0)\n",
       "    (6): Conv2d(48, 64, kernel_size=(3, 3), stride=(1, 1))\n",
       "    (7): ELU(alpha=1.0)\n",
       "    (8): Conv2d(64, 64, kernel_size=(3, 3), stride=(1, 1))\n",
       "    (9): ELU(alpha=1.0)\n",
       "  )\n",
       "  (flatten): Flatten(start_dim=1, end_dim=-1)\n",
       "  (dense_layers): Sequential(\n",
       "    (0): Linear(in_features=1152, out_features=1164, bias=True)\n",
       "    (1): ELU(alpha=1.0)\n",
       "    (2): Linear(in_features=1164, out_features=100, bias=True)\n",
       "    (3): ELU(alpha=1.0)\n",
       "    (4): Linear(in_features=100, out_features=50, bias=True)\n",
       "    (5): ELU(alpha=1.0)\n",
       "    (6): Linear(in_features=50, out_features=10, bias=True)\n",
       "    (7): ELU(alpha=1.0)\n",
       "    (8): Linear(in_features=10, out_features=1, bias=True)\n",
       "  )\n",
       ")"
      ]
     },
     "execution_count": 25,
     "metadata": {},
     "output_type": "execute_result"
    }
   ],
   "source": [
    "device = torch.device(\"cuda\" if torch.cuda.is_available() else \"cpu\")\n",
    "\n",
    "baseline_model = DrSam_Eddy_Stora().to(device)\n",
    "\n",
    "baseline_model"
   ]
  },
  {
   "cell_type": "code",
…
